…
orflow-1.15.2/python3.6/tensorflow_core/python/ops/resource_variable_ops.py:1630: calling BaseResourceVariable.__init__ (from tensorflow.python.ops.resource_variable_ops) with constraint is deprecated and will be removed in a future version.\n","Instructions for updating:\n","If using Keras pass *_constraint arguments to layers.\n","Model: \"sequential\"\n","_________________________________________________________________\n","Layer (type)                 Output Shape              Param #   \n","=================================================================\n","conv2d (Conv2D)              (None, 148, 148, 32)      320       \n","_________________________________________________________________\n","conv2d_1 (Conv2D)            (None, 146, 146, 32)      9248      \n","_________________________________________________________________\n","max_pooling2d (MaxPooling2D) (None, 48, 48, 32)        0         \n","_________________________________________________________________\n","conv2d_2 (Conv2D)            (None, 46, 46, 64)        18496     \n","_________________________________________________________________\n","conv2d_3 (Conv2D)            (None, 44, 44, 64)        36928     \n","_________________________________________________________________\n","max_pooling2d_1 (MaxPooling2 (None, 14, 14, 64)        0         \n","_________________________________________________________________\n","conv2d_4 (Conv2D)            (None, 12, 12, 128)       73856     \n","_________________________________________________________________\n","conv2d_5 (Conv2D)            (None, 10, 10, 128)       147584    \n","_________________________________________________________________\n","max_pooling2d_2 (MaxPooling2 (None, 3, 3, 128)         0         \n","_________________________________________________________________\n","flatten (Flatten)            (None, 1152)              0         \n","_________________________________________________________________\n","dropout (Dropout)            (None, 1152)              0         \n","_________________________________________________________________\n","dense (Dense)                (None, 512)               590336    \n","_________________________________________________________________\n","dense_1 (Dense)              (None, 1)                 513       \n","=================================================================\n","Total params: 877,281\n","Trainable params: 877,281\n","Non-trainable params: 0\n","_________________________________________________________________\n"]}],"source":["# Design of NN neutwork\n","# Add convolutional, pooling and dense layers\n","model = models.Sequential()\n","model.add(layers.Conv2D(32, (3, 3), activ
…
